…
/mnt/nfsdisk/zyguan/Xmas_xie/neurosim_log/default/ADCprecision=5/batch_size=500/cellBit=4/dataset=cifar10/decreasing_lr=140,180/detect=0/grad_scale=8/inference=0/lr=0.01/mode=FP/model=ResNet18/onoffratio=10/seed=117/subArray=128/t=0/target=0/v=0/vari=0/wl_activate=8/wl_error=8/wl_grad=8/wl_weight=8
Building CIFAR-10 data loader with 1 workers
Files already downloaded and verified
Files already downloaded and verified
----------------------------------------------------------------
        Layer (type)               Output Shape         Param #
================================================================
           FConv2d-1           [-1, 32, 16, 16]             864
       BatchNorm2d-2           [-1, 32, 16, 16]              64
              ReLU-3           [-1, 32, 16, 16]               0
         ConvLayer-4           [-1, 32, 16, 16]               0
           FConv2d-5           [-1, 32, 16, 16]           9,216
       BatchNorm2d-6           [-1, 32, 16, 16]              64
              ReLU-7           [-1, 32, 16, 16]               0
         ConvLayer-8           [-1, 32, 16, 16]               0
     IdentityLayer-9           [-1, 32, 16, 16]               0
    ResidualBlock-10           [-1, 32, 16, 16]               0
          FConv2d-11           [-1, 64, 16, 16]          18,432
      BatchNorm2d-12           [-1, 64, 16, 16]             128
             ReLU-13           [-1, 64, 16, 16]               0
        ConvLayer-14           [-1, 64, 16, 16]               0
        MaxPool2d-15             [-1, 64, 8, 8]               0
        AvgPool2d-16             [-1, 64, 8, 8]               0
          FConv2d-17              [-1, 8, 8, 8]             512
      BatchNorm2d-18              [-1, 8, 8, 8]              16
          FConv2d-19             [-1, 32, 8, 8]          18,432
      BatchNorm2d-20             [-1, 32, 8, 8]              64
             ReLU-21             [-1, 32, 8, 8]               0
          FConv2d-22              [-1, 8, 8, 8]           2,304
      BatchNorm2d-23              [-1, 8, 8, 8]              16
             ReLU-24              [-1, 8, 8, 8]               0
 ResNetBasicBlock-25              [-1, 8, 8, 8]               0
    IdentityLayer-26              [-1, 8, 8, 8]               0
          FConv2d-27             [-1, 32, 8, 8]           2,304
      BatchNorm2d-28             [-1, 32, 8, 8]              64
             ReLU-29             [-1, 32, 8, 8]               0
          FConv2d-30              [-1, 8, 8, 8]           2,304
      BatchNorm2d-31              [-1, 8, 8, 8]              16
             ReLU-32              [-1, 8, 8, 8]               0
 ResNetBasicBlock-33              [-1, 8, 8, 8]               0
    IdentityLayer-34              [-1, 8, 8, 8]               0
          FConv2d-35             [-1, 32, 8, 8]           2,304
      BatchNorm2d-36             [-1, 32, 8, 8]              64
             ReLU-37             [-1, 32, 8, 8]               0
          FConv2d-38              [-1, 8, 8, 8]           2,304
      BatchNorm2d-39              [-1, 8, 8, 8]              16
             ReLU-40              [-1, 8, 8, 8]               0
 ResNetBasicBlock-41              [-1, 8, 8, 8]               0
    IdentityLayer-42              [-1, 8, 8, 8]               0
          FConv2d-43             [-1, 32, 8, 8]           2,304
      BatchNorm2d-44             [-1, 32, 8, 8]              64
             ReLU-45             [-1, 32, 8, 8]               0
          FConv2d-46              [-1, 8, 8, 8]           2,304
      BatchNorm2d-47              [-1, 8, 8, 8]              16
             ReLU-48              [-1, 8, 8, 8]               0
 ResNetBasicBlock-49              [-1, 8, 8, 8]               0
    IdentityLayer-50              [-1, 8, 8, 8]               0
          FConv2d-51             [-1, 32, 8, 8]           2,304
      BatchNorm2d-52             [-1, 32, 8, 8]              64
             ReLU-53             [-1, 32, 8, 8]               0
          FConv2d-54              [-1, 8, 8, 8]           2,304
      BatchNorm2d-55              [-1, 8, 8, 8]              16
             ReLU-56              [-1, 8, 8, 8]               0
 ResNetBasicBlock-57              [-1, 8, 8, 8]               0
        AvgPool2d-58              [-1, 8, 4, 4]               0
          FConv2d-59              [-1, 8, 4, 4]              64
      BatchNorm2d-60              [-1, 8, 4, 4]              16
          FConv2d-61             [-1, 32, 8, 8]           2,304
      BatchNorm2d-62             [-1, 32, 8, 8]              64
             ReLU-63             [-1, 32, 8, 8]               0
          FConv2d-64              [-1, 8, 4, 4]           2,304
      BatchNorm2d-65              [-1, 8, 4, 4]              16
             ReLU-66              [-1, 8, 4, 4]               0
 ResNetBasicBlock-67              [-1, 8, 4, 4]               0
    IdentityLayer-68              [-1, 8, 4, 4]               0
          FConv2d-69             [-1, 32, 4, 4]           2,304
      BatchNorm2d-70             [-1, 32, 4, 4]              64
             ReLU-71             [-1, 32, 4, 4]               0
          FConv2d-72              [-1, 8, 4, 4]           2,304
      BatchNorm2d-73              [-1, 8, 4, 4]              16
             ReLU-74              [-1, 8, 4, 4]               0
 ResNetBasicBlock-75              [-1, 8, 4, 4]               0
    IdentityLayer-76              [-1, 8, 4, 4]               0
          FConv2d-77             [-1, 32, 4, 4]           2,304
      BatchNorm2d-78             [-1, 32, 4, 4]              64
             ReLU-79             [-1, 32, 4, 4]               0
          FConv2d-80              [-1, 8, 4, 4]           2,304
      BatchNorm2d-81              [-1, 8, 4, 4]              16
             ReLU-82              [-1, 8, 4, 4]               0
 ResNetBasicBlock-83              [-1, 8, 4, 4]               0
    IdentityLayer-84              [-1, 8, 4, 4]               0
          FConv2d-85             [-1, 32, 4, 4]           2,304
      BatchNorm2d-86             [-1, 32, 4, 4]              64
             ReLU-87             [-1, 32, 4, 4]               0
          FConv2d-88              [-1, 8, 4, 4]           2,304
      BatchNorm2d-89              [-1, 8, 4, 4]              16
             ReLU-90              [-1, 8, 4, 4]               0
 ResNetBasicBlock-91              [-1, 8, 4, 4]               0
    IdentityLayer-92              [-1, 8, 4, 4]               0
          FConv2d-93             [-1, 32, 4, 4]           2,304
      BatchNorm2d-94             [-1, 32, 4, 4]              64
             ReLU-95             [-1, 32, 4, 4]               0
          FConv2d-96              [-1, 8, 4, 4]           2,304
      BatchNorm2d-97              [-1, 8, 4, 4]              16
             ReLU-98              [-1, 8, 4, 4]               0
 ResNetBasicBlock-99              [-1, 8, 4, 4]               0
       AvgPool2d-100              [-1, 8, 2, 2]               0
         FConv2d-101              [-1, 8, 2, 2]              64
     BatchNorm2d-102              [-1, 8, 2, 2]              16
         FConv2d-103             [-1, 32, 4, 4]           2,304
     BatchNorm2d-104             [-1, 32, 4, 4]              64
            ReLU-105             [-1, 32, 4, 4]               0
         FConv2d-106              [-1, 8, 2, 2]           2,304
     BatchNorm2d-107              [-1, 8, 2, 2]              16
            ReLU-108              [-1, 8, 2, 2]               0
ResNetBasicBlock-109              [-1, 8, 2, 2]               0
   IdentityLayer-110              [-1, 8, 2, 2]               0
         FConv2d-111             [-1, 32, 2, 2]           2,304
     BatchNorm2d-112             [-1, 32, 2, 2]              64
            ReLU-113             [-1, 32, 2, 2]               0
         FConv2d-114              [-1, 8, 2, 2]           2,304
     BatchNorm2d-115              [-1, 8, 2, 2]              16
            ReLU-116              [-1, 8, 2, 2]               0
ResNetBasicBlock-117              [-1, 8, 2, 2]               0
   IdentityLayer-118              [-1, 8, 2, 2]               0
         FConv2d-119             [-1, 32, 2, 2]           2,304
     BatchNorm2d-120             [-1, 32, 2, 2]              64
            ReLU-121             [-1, 32, 2, 2]               0
         FConv2d-122              [-1, 8, 2, 2]           2,304
     BatchNorm2d-123              [-1, 8, 2, 2]              16
            ReLU-124              [-1, 8, 2, 2]               0
ResNetBasicBlock-125              [-1, 8, 2, 2]               0
   IdentityLayer-126              [-1, 8, 2, 2]               0
         FConv2d-127             [-1, 32, 2, 2]           2,304
     BatchNorm2d-128             [-1, 32, 2, 2]              64
            ReLU-129             [-1, 32, 2, 2]               0
         FConv2d-130              [-1, 8, 2, 2]           2,304
     BatchNorm2d-131              [-1, 8, 2, 2]              16
            ReLU-132              [-1, 8, 2, 2]               0
ResNetBasicBlock-133              [-1, 8, 2, 2]               0
   IdentityLayer-134              [-1, 8, 2, 2]               0
         FConv2d-135             [-1, 32, 2, 2]           2,304
     BatchNorm2d-136             [-1, 32, 2, 2]              64
            ReLU-137             [-1, 32, 2, 2]               0
         FConv2d-138              [-1, 8, 2, 2]           2,304
     BatchNorm2d-139              [-1, 8, 2, 2]              16
            ReLU-140              [-1, 8, 2, 2]               0
ResNetBasicBlock-141              [-1, 8, 2, 2]               0
       AvgPool2d-142              [-1, 8, 1, 1]               0
         FConv2d-143             [-1, 16, 1, 1]             128
     BatchNorm2d-144             [-1, 16, 1, 1]              32
         FConv2d-145             [-1, 64, 2, 2]           4,608
     BatchNorm2d-146             [-1, 64, 2, 2]             128
            ReLU-147             [-1, 64, 2, 2]               0
         FConv2d-148             [-1, 16, 1, 1]           9,216
     BatchNorm2d-149             [-1, 16, 1, 1]              32
            ReLU-150             [-1, 16, 1, 1]               0
ResNetBasicBlock-151             [-1, 16, 1, 1]               0
   IdentityLayer-152             [-1, 16, 1, 1]               0
         FConv2d-153             [-1, 64, 1, 1]           9,216
     BatchNorm2d-154             [-1, 64, 1, 1]             128
            ReLU-155             [-1, 64, 1, 1]               0
         FConv2d-156             [-1, 16, 1, 1]           9,216
     BatchNorm2d-157             [-1, 16, 1, 1]              32
            ReLU-158             [-1, 16, 1, 1]               0
ResNetBasicBlock-159             [-1, 16, 1, 1]               0
   IdentityLayer-160             [-1, 16, 1, 1]               0
         FConv2d-161             [-1, 64, 1, 1]           9,216
     BatchNorm2d-162             [-1, 64, 1, 1]             128
            ReLU-163             [-1, 64, 1, 1]               0
         FConv2d-164             [-1, 16, 1, 1]           9,216
     BatchNorm2d-165             [-1, 16, 1, 1]              32
            ReLU-166             [-1, 16, 1, 1]               0
ResNetBasicBlock-167             [-1, 16, 1, 1]               0
   IdentityLayer-168             [-1, 16, 1, 1]               0
         FConv2d-169             [-1, 64, 1, 1]           9,216
     BatchNorm2d-170             [-1, 64, 1, 1]             128
            ReLU-171             [-1, 64, 1, 1]               0
         FConv2d-172             [-1, 16, 1, 1]           9,216
     BatchNorm2d-173             [-1, 16, 1, 1]              32
            ReLU-174             [-1, 16, 1, 1]               0
ResNetBasicBlock-175             [-1, 16, 1, 1]               0
   IdentityLayer-176             [-1, 16, 1, 1]               0
         FConv2d-177             [-1, 64, 1, 1]           9,216
     BatchNorm2d-178             [-1, 64, 1, 1]             128
            ReLU-179             [-1, 64, 1, 1]               0
         FConv2d-180             [-1, 16, 1, 1]           9,216
     BatchNorm2d-181             [-1, 16, 1, 1]              32
            ReLU-182             [-1, 16, 1, 1]               0
ResNetBasicBlock-183             [-1, 16, 1, 1]               0
MyGlobalAvgPool2d-184                   [-1, 16]               0
         Dropout-185                   [-1, 16]               0
         FLinear-186                   [-1, 10]             170
     LinearLayer-187                   [-1, 10]               0
================================================================
Total params: 204,586
Trainable params: 204,586
Non-trainable params: 0
----------------------------------------------------------------
Input size (MB): 0.01
Forward/backward pass size (MB): 1.69
Params size (MB): 0.78
Estimated Total Size (MB): 2.48
----------------------------------------------------------------
ResNets(
  (input_stem): ModuleList(
…
