…
quantize layer  Depthwise_0_
quantize layer  Pointwise_0_
quantize layer  Depthwise_0_
quantize layer  Pointwise_0_
quantize layer  Depthwise_0_
quantize layer  Pointwise_0_
quantize layer  Depthwise_0_
quantize layer  Pointwise_0_
quantize layer  Depthwise_0_
quantize layer  Pointwise_0_
quantize layer  Depthwise_0_
quantize layer  Pointwise_0_
quantize layer  Conv_0_
quantize layer  FC_1_
----------------------------------------------------------------
        Layer (type)               Output Shape         Param #
================================================================
           FConv2d-1            [-1, 3, 32, 32]              27
       BatchNorm2d-2            [-1, 3, 32, 32]               6
              ReLU-3            [-1, 3, 32, 32]               0
           FConv2d-4           [-1, 64, 32, 32]             192
       BatchNorm2d-5           [-1, 64, 32, 32]             128
              ReLU-6           [-1, 64, 32, 32]               0
DepthSeperabelConv2d-7           [-1, 64, 32, 32]               0
           FConv2d-8           [-1, 64, 16, 16]             576
       BatchNorm2d-9           [-1, 64, 16, 16]             128
             ReLU-10           [-1, 64, 16, 16]               0
          FConv2d-11          [-1, 128, 16, 16]           8,192
      BatchNorm2d-12          [-1, 128, 16, 16]             256
             ReLU-13          [-1, 128, 16, 16]               0
DepthSeperabelConv2d-14          [-1, 128, 16, 16]               0
          FConv2d-15          [-1, 128, 16, 16]           1,152
      BatchNorm2d-16          [-1, 128, 16, 16]             256
             ReLU-17          [-1, 128, 16, 16]               0
          FConv2d-18          [-1, 128, 16, 16]          16,384
      BatchNorm2d-19          [-1, 128, 16, 16]             256
             ReLU-20          [-1, 128, 16, 16]               0
DepthSeperabelConv2d-21          [-1, 128, 16, 16]               0
          FConv2d-22            [-1, 128, 8, 8]           1,152
      BatchNorm2d-23            [-1, 128, 8, 8]             256
             ReLU-24            [-1, 128, 8, 8]               0
          FConv2d-25            [-1, 256, 8, 8]          32,768
      BatchNorm2d-26            [-1, 256, 8, 8]             512
             ReLU-27            [-1, 256, 8, 8]               0
DepthSeperabelConv2d-28            [-1, 256, 8, 8]               0
          FConv2d-29            [-1, 256, 8, 8]           2,304
      BatchNorm2d-30            [-1, 256, 8, 8]             512
             ReLU-31            [-1, 256, 8, 8]               0
          FConv2d-32            [-1, 256, 8, 8]          65,536
      BatchNorm2d-33            [-1, 256, 8, 8]             512
             ReLU-34            [-1, 256, 8, 8]               0
DepthSeperabelConv2d-35            [-1, 256, 8, 8]               0
          FConv2d-36            [-1, 256, 4, 4]           2,304
      BatchNorm2d-37            [-1, 256, 4, 4]             512
             ReLU-38            [-1, 256, 4, 4]               0
          FConv2d-39            [-1, 512, 4, 4]         131,072
      BatchNorm2d-40            [-1, 512, 4, 4]           1,024
             ReLU-41            [-1, 512, 4, 4]               0
DepthSeperabelConv2d-42            [-1, 512, 4, 4]               0
          FConv2d-43            [-1, 512, 4, 4]           4,608
      BatchNorm2d-44            [-1, 512, 4, 4]           1,024
             ReLU-45            [-1, 512, 4, 4]               0
          FConv2d-46            [-1, 512, 4, 4]         262,144
      BatchNorm2d-47            [-1, 512, 4, 4]           1,024
             ReLU-48            [-1, 512, 4, 4]               0
DepthSeperabelConv2d-49            [-1, 512, 4, 4]               0
          FConv2d-50            [-1, 512, 4, 4]       2,359,296
AdaptiveAvgPool2d-51            [-1, 512, 1, 1]               0
          FLinear-52                   [-1, 10]           5,130
================================================================
Total params: 2,899,243
Trainable params: 2,899,243
Non-trainable params: 0
----------------------------------------------------------------
Input size (MB): 0.01
Forward/backward pass size (MB): 7.61
Params size (MB): 11.06
Estimated Total Size (MB): 18.68
----------------------------------------------------------------
Test set: Average loss: 0.8070, Accuracy: 7390/10000 (74%)
…
